…
	at::get_num_interop_threads() : 48
OpenMP 201511 (a.k.a. OpenMP 4.5)
	omp_get_max_threads() : 8
Intel(R) oneAPI Math Kernel Library Version 2024.2-Product Build 20240605 for Intel(R) 64 architecture applications
	mkl_get_max_threads() : 8
Intel(R) MKL-DNN v3.5.3 (Git Hash 66f0cb9eb66affd2da3bf5f8d897376f04aae6af)
std::thread::hardware_concurrency() : 96
Environment variables:
	OMP_NUM_THREADS : [not set]
	MKL_NUM_THREADS : [not set]
ATen parallel backend: OpenMP

[2025-03-05 18:08:50,257][jamun][INFO] - os.sched_getaffinity(0)={44, 45, 46, 47, 92, 93, 94, 95}
[2025-03-05 18:08:52,833][jamun][INFO] - E3Conv(
  (embed_bondedness): Embedding(2, 32)
  (atom_embedder): AtomEmbeddingWithResidueInformation(
    (atom_type_embedding): Embedding(20, 8)
    (atom_code_embedding): Embedding(10, 8)
    (residue_code_embedding): Embedding(25, 32)
    (residue_index_embedding): Embedding(10, 8)
  )
  (initial_noise_scaling): NoiseConditionalScaling(
    (scale_predictor): Sequential(
      (0): Linear(in_features=1, out_features=56, bias=True)
      (1): SELU()
      (2): Linear(in_features=56, out_features=56, bias=True)
    )
  )
  (initial_projector): ConvBlock(
    (gated_conv): LinearSelfInteraction(
      (f): Gated(
        (gate): Gate(
          (gate): Gate (152x0e+32x1e -> 120x0e+32x1e)
        )
        (f): Conv(
          (tp): FullyConnectedTensorProduct(8x0e+8x0o+40x0e x 1x0e+1x1e -> 152x0e+32x1e | 8832 paths | 8832 weights)
          (radial_nn): ScalarMLP(
            (0): Linear(in_features=64, out_features=64, bias=True)
            (1): SiLU()
            (2): Dropout(p=0.0, inplace=False)
            (3): Linear(in_features=64, out_features=8832, bias=True)
            (4): Dropout(p=0.0, inplace=False)
          )
        )
      )
      (skip_connection): Linear(8x0e+8x0o+32x0e+8x0e -> 120x0e+32x1e | 5760 weights)
      (self_interaction): Linear(120x0e+32x1e -> 120x0e+32x1e | 15424 weights)
    )
  )
  (layers): ModuleList(
    (0-4): 5 x ConvBlock(
      (gated_conv): LinearSelfInteraction(
        (f): Gated(
          (gate): Gate(
            (gate): Gate (152x0e+32x1e -> 120x0e+32x1e)
          )
          (f): Conv(
            (tp): FullyConnectedTensorProduct(120x0e+32x1e x 1x0e+1x1e -> 152x0e+32x1e | 28992 paths | 28992 weights)
            (radial_nn): ScalarMLP(
              (0): Linear(in_features=64, out_features=64, bias=True)
              (1): SiLU()
              (2): Dropout(p=0.0, inplace=False)
              (3): Linear(in_features=64, out_features=28992, bias=True)
              (4): Dropout(p=0.0, inplace=False)
            )
          )
        )
        (skip_connection): Linear(120x0e+32x1e -> 120x0e+32x1e | 15424 weights)
        (self_interaction): Linear(120x0e+32x1e -> 120x0e+32x1e | 15424 weights)
      )
    )
  )
  (noise_scalings): ModuleList(
    (0-4): 5 x NoiseConditionalScaling(
      (scale_predictor): Sequential(
        (0): Linear(in_features=1, out_features=152, bias=True)
        (1): SELU()
        (2): Linear(in_features=152, out_features=152, bias=True)
      )
    )
  )
  (skip_connections): ModuleList(
    (0-4): 5 x NoiseConditionalSkipConnection(
      (weights): NoiseConditionalScaling(
        (scale_predictor): Sequential(
          (0): Linear(in_features=1, out_features=152, bias=True)
          (1): SELU()
          (2): Linear(in_features=152, out_features=152, bias=True)
        )
      )
    )
  )
  (output_head): EquivariantMLP(
    (0): EquivariantMLPBlock(
      (gate): Gate(
        (gate): Gate (152x0e+32x1e -> 120x0e+32x1e)
      )
      (lin): Linear(120x0e+32x1e -> 152x0e+32x1e | 19264 weights)
    )
    (1): Linear(120x0e+32x1e -> 1x1e | 32 weights)
  )
)
[2025-03-05 18:08:52,835][jamun][INFO] - Average squared distance = None
[2025-03-05 18:08:52,835][jamun][INFO] - Aligning noisy input during training.
[2025-03-05 18:08:52,835][jamun][INFO] - Aligning noisy input during evaluation.
[2025-03-05 18:08:52,835][jamun][INFO] - Mean centering input.
[2025-03-05 18:08:52,835][jamun][INFO] - Mean centering output.
…
